model_sandbox/Gait/test_gait_model.tflite (tflite, 45032 bytes, 29 tensors)

tcn_model/initial_contact/Tensordot/MatMul f4 [1, 16]
00000000: 1d5b 42bf 78b5 ef3c 2bda 0dbe 7b97 a33c
00000010: 13e6 20bf 5674 04be 9211 db3d 5e32 f3be
00000020: de2c 55bf c250 c83b d3b5 b5be 443e c13e
00000030: d732 b93e a4c2 8a3e 727f 893e 35d6 453e
-0.7592028 0.029261336 -0.13852756 0.019969692 -0.62851065 -0.12935004 0.10696711 -0.47499365
-0.83271587 0.0061131427 -0.35490283 0.37742817 0.361716 0.27101624 0.26855046 0.19319995

tcn_model/final_contact/Tensordot/MatMul f4 [1, 16]
00000000: 2bc0 133e 21e2 30bf 81b5 f7be bb98 51bf
00000010: ce7c a7be 346f 9cbd 5f7e 073e 8dd3 00bf
00000020: 0a61 89be e099 ed3e 57a5 f43e 7535 27bf
00000030: 962c d8bd 55a5 afbe b04b a73e b892 46bf
0.14428775 -0.69095045 -0.48380664 -0.81873673 -0.32712406 -0.07638398 0.132318 -0.503228
-0.26831847 0.4640646 0.47782394 -0.65315944 -0.10555379 -0.34305826 0.32674932 -0.77567625

tcn_model/tcn_layer/residual_block_0/conv1D_0/BiasAdd/ReadVariableOp f4 [16]
00000000: c807 afb4 cb7c 6b36 29cc 2635 a922 8035
00000010: d691 80b5 2483 2bb4 58b9 e935 99a5 26b5
00000020: 3245 d635 16bb fa34 cac6 3cb6 6dc2 7db5
00000030: 5cd8 f335 4d82 12b6 fb13 84b5 a31b 89b3
-3.2601952e-07 3.5090368e-06 6.213691e-07 9.546831e-07 -9.579187e-07 -1.5973325e-07 1.7413795e-06 -6.2080795e-07
1.5964381e-06 4.6702252e-07 -2.8129894e-06 -9.453277e-07 1.816788e-06 -2.183154e-06 -9.840581e-07 -6.384587e-08

tcn_model/tcn_layer/residual_block_0/conv1D_1/BiasAdd/ReadVariableOp f4 [16]
00000000: fa01 9535 9ced 6635 fca2 4fb6 ac54 aab3
00000010: f3b0 2ab6 3949 2536 cb0a 9735 563b 09b2
00000020: 63a7 b8b4 1305 a135 a434 7fb4 d20f d6b5
00000030: f034 2db5 0e0b fcb5 787d 7c35 6074 7e33
1.110194e-06 8.6027444e-07 -3.0940273e-06 -7.9316436e-08 -2.5434972e-06 2.4629537e-06 1.1253518e-06 -7.987941e-09
-3.439446e-07 1.1996912e-06 -2.3767876e-07 -1.5948847e-06 -6.4524556e-07 -1.877868e-06 9.4059897e-07 5.9244826e-08

tcn_model/tcn_layer/residual_block_0/matching_conv1D/BiasAdd/ReadVariableOp f4 [16]
00000000: a81e 8ebb 7c78 693d 796b 8d3e 14e7 3abe
00000010: fbe2 153d f838 01be 0453 2cbe a5a9 d2bd
00000020: b193 7fbd 9f6d 073e 5c5f 04be b945 b8bd
00000030: d6d1 c43c 0526 4c3e 1963 64bd c319 633e
-0.0043371506 0.05699967 0.27621058 -0.18252212 0.03659342 -0.12619388 -0.16828543 -0.102862634
-0.06239671 0.13225411 -0.12927002 -0.089976735 0.024025839 0.19936378 -0.05575857 0.22177796

tcn_model/tcn_layer/residual_block_1/conv1D_0/BiasAdd/ReadVariableOp f4 [16]
00000000: cbe7 b335 26ad bab5 2217 8db4 c3ad ebb4
00000010: f60b 17b4 3d6d 2c36 cf20 85b4 ea55 a8b4
00000020: 8c26 3735 6ef8 da33 1e67 d6b3 eadc 81b5
00000030: d2ef ab33 17ba c4b3 987f 4834 cc54 2fb4
1.3404e-06 -1.3908473e-06 -2.6280128e-07 -4.389859e-07 -1.4067322e-07 2.5693582e-06 -2.4797052e-07 -3.135495e-07
6.8228906e-07 1.0196605e-07 -9.9839085e-08 -9.675543e-07 8.006431e-08 -9.160811e-08 1.867287e-07 -1.6328994e-07

tcn_model/tcn_layer/residual_block_1/conv1D_1/BiasAdd/ReadVariableOp f4 [16]
00000000: 55c5 90b4 60a8 4cb5 d1fd 9834 946e 3534
00000010: 8716 05b5 43e0 45b5 8398 88b5 8973 4b36
00000020: ae64 8136 626c bbb4 18b5 c1b5 f983 48b4
00000030: f7f0 af34 6c10 8933 6256 beb5 0384 afb5
-2.6965668e-07 -7.624094e-07 2.8496882e-07 1.6897167e-07 -4.957914e-07 -7.371456e-07 -1.0177176e-06 3.0316608e-06
3.8562202e-06 -3.4910323e-07 -1.4432326e-06 -1.8674463e-07 3.2771615e-07 6.382547e-08 -1.4181244e-06 -1.3076937e-06

tcn_model/tcn_layer/residual_block_2/conv1D_0/BiasAdd/ReadVariableOp f4 [16]
00000000: 5437 ec33 83bf 31b5 dd92 1735 e553 5535
00000010: 8ff6 0d34 bdca 3e34 4bdf bb35 fd2a 1c35
00000020: 669e 4fb4 1c73 ceb5 1f71 ae35 1058 f8b3
00000030: 319b 1db5 2e52 b1b5 9fc6 0735 cf38 7235
1.09996705e-07 -6.6216325e-07 5.64656e-07 7.9470766e-07 1.3221346e-07 1.7768885e-07 1.3997573e-06 5.8177085e-07
-1.9336002e-07 -1.5381697e-06 1.2996933e-06 -1.15644184e-07 -5.871289e-07 -1.3211445e-06 5.058045e-07 9.023469e-07

tcn_model/tcn_layer/residual_block_2/conv1D_1/BiasAdd/ReadVariableOp f4 [16]
00000000: 0d0d 4d36 6286 9d35 faf8 cbb4 aafe eab5
00000010: a9f3 3e34 5741 5c34 5ff4 80b4 e6b4 3b35
00000020: da18 b936 4aaa 5435 eeca b9b5 2c4e ccb5
00000030: 7f07 d1b5 a8fe a5b5 486e 8a35 c190 8f35
3.0554977e-06 1.1736522e-06 -3.799285e-07 -1.7508476e-06 1.7783772e-07 2.0512867e-07 -2.401966e-07 6.992617e-07
5.5163227e-06 7.922396e-07 -1.3842634e-06 -1.5221935e-06 -1.5573895e-06 -1.2367573e-06 1.0313897e-06 1.0696459e-06

tcn_model/tcn_layer/residual_block_0/batch_normalization_1/batchnorm/mul f4 [16]
00000000: 1c13 1b3f 4eed 603f eae1 973f 3d8d 633f
00000010: b967 263f aabd 663f a232 8f3f a30d 233f
00000020: f51e 0c3f 1350 3a3f 1d12 563f 54ca 633f
00000030: 26f9 3b3f 9b50 6c3f f1c3 b43f a60f 043f
0.60576034 0.878621 1.1865819 0.8888739 0.6500202 0.90133154 1.1187327 0.63692683
0.54734737 0.72778434 0.8362139 0.88980603 0.73427045 0.92310494 1.4122297 0.5158638

tcn_model/tcn_layer/residual_block_0/batch_normalization_1/batchnorm/sub f4 [16]
00000000: 4161 9abe 2253 9a3f 48af 0840 802f 03bf
00000010: aef6 ba3f a6f7 07bf 4dbe bc3e 9ee5 313f
00000020: 0118 913f 2906 0dbe 3d85 dc3e 8043 103e
00000030: 002d a13b e895 56be 0700 033f 786d c93e
-0.30152324 1.205662 2.1356983 -0.51244354 1.4606531 -0.53112257 0.36863938 0.69490993
1.133545 -0.13771881 0.43070403 0.14088249 0.0049186945 -0.20955622 0.51171917 0.3934133

tcn_model/tcn_layer/residual_block_0/batch_normalization/batchnorm/mul f4 [16]
00000000: e413 163f 0ad8 853f 7f98 f83e 70a7 723f
00000010: 655c 623f e053 3e3f cf5c 223f 5b10 0b3f
00000020: dd58 f13e 54e6 673f 68c6 3a3f e86b 4e3f
00000030: a5b5 113f 0369 333f 7edd b03f 542e 923f
0.586241 1.0456555 0.48553845 0.9478674 0.8842223 0.74346733 0.63422865 0.5432183
0.4713811 0.9058583 0.72958994 0.806334 0.5691779 0.7008211 1.3817594 1.1420388

tcn_model/tcn_layer/residual_block_0/batch_normalization/batchnorm/sub f4 [16]
00000000: bceb 40be 645b 27be eeb8 c13e 4a80 83be
00000010: 26f8 763c a237 af3c d969 63bd b461 bbbc
00000020: 1260 8ebd 2bf6 33be 9da6 fc3d ab5c c93c
00000030: 2c9f 23be eefa 4f3e 5b6a 473e c810 ee3b
-0.18839926 -0.16343457 0.37836403 -0.25683814 0.015073812 0.021388832 -0.055520866 -0.022873737
-0.06951918 -0.17574374 0.123364665 0.02458032 -0.15978688 0.20310566 0.19474165 0.007265184

tcn_model/tcn_layer/residual_block_1/batch_normalization_2/batchnorm/mul f4 [16]
00000000: 1a1c 273f 90f1 473f 62f0 0c3f 9bfe 2b3f
00000010: 9ccd ad3e 2fc9 063f f4ce 443f 75dd 553f
00000020: 22bc f03e 9b16 1a3f a367 143f 31b3 653f
00000030: d36c 253f 774b 403f f7ca fd3e a541 0a3f
0.65277255 0.7810297 0.55054295 0.6718537 0.3394593 0.5265073 0.76878285 0.8354104
0.47018534 0.60190743 0.5797064 0.8972655 0.6461918 0.7511515 0.49568912 0.54006416

tcn_model/tcn_layer/residual_block_1/batch_normalization_2/batchnorm/sub f4 [16]
00000000: a2ef c33e 4799 bbbe fac1 e43e ec93 123f
00000010: 817b 4ebe 720f b63e 6ab8 db3e 4453 ef3e
00000020: 2178 42bf 402c a73e 8673 16be 8bb2 153f
00000030: 2e25 073e 1fe0 ed3d abf2 a73f 747a e2bf
0.38268763 -0.3664038 0.44679242 0.5725696 -0.201643 0.3555866 0.42914134 0.46743214
-0.7596455 0.32650948 -0.14692506 0.5847556 0.13197777 0.11615013 1.3120931 -1.769362

tcn_model/tcn_layer/residual_block_1/batch_normalization_3/batchnorm/mul f4 [16]
00000000: a0f0 6a3f b080 a83f c10b cf3f bf51 8c3f
00000010: a6f3 483f d257 523f 59fd 8a3f 063d 8c3f
00000020: e281 5c3f 4471 8c3f 84fb 903f b809 5d3f
00000030: cfa8 5c3f 464d 4d3f 2298 4b3f 091e 903f
0.91773415 1.3164272 1.6175462 1.0962447 0.7849678 0.82165253 1.0858566 1.0956123
0.86135685 1.0972066 1.1326756 0.86342955 0.8619508 0.80196035 0.7952901 1.1259166

tcn_model/tcn_layer/residual_block_1/batch_normalization_3/batchnorm/sub f4 [16]
00000000: ec15 c23f e06b 123e 56a7 823f 9359 143e
00000010: e834 343f d05a 45be a1d2 87be 43d7 953f
00000020: 9033 6abe aa74 123f 7fff b63e c487 3d3f
00000030: 201a 37bf ecdf a6be 1e9f b83e 64e6 5cbe
1.516294 0.14298964 1.0207317 0.14487295 0.7039323 -0.19272923 -0.26527885 1.1706318
-0.22871232 0.57209265 0.35741803 0.74035287 -0.7152424 -0.32592714 0.36058897 -0.21572262

tcn_model/tcn_layer/residual_block_2/batch_normalization_4/batchnorm/mul f4 [16]
00000000: 695c b53e 2495 013f e39f f43e 5472 933e
00000010: ce65 033f 6c07 b83e ec05 173f 14a5 003f
00000020: 64ad c43e c3c5 ff3e 56e7 043f 986c e33e
00000030: b818 ec3e d352 0b3f 3dc5 093f 1527 953e
0.35422066 0.50618196 0.47778234 0.28798163 0.51327217 0.35943162 0.5899341 0.5025189
0.38413537 0.49955568 0.5191549 0.44418788 0.4611261 0.54423255 0.53816587 0.2913138

tcn_model/tcn_layer/residual_block_2/batch_normalization_4/batchnorm/sub f4 [16]
00000000: 9444 ad3e 859b 2d3f 9330 093f 7906 c73f
00000010: 50b0 b63e 969c 063f 1418 8cbf 68e4 093f
00000020: b71f 3ebf 4098 febf 4e36 c73f 501a 823e
00000030: 3cdb 4e3e 1936 ea3c 805c 213c 4f51 f2bf
0.33841383 0.6781543 0.53589743 1.554885 0.3568139 0.5258268 -1.0944848 0.53864145
-0.74267143 -1.9890213 1.5563447 0.254107 0.20200819 0.028590249 0.009848714 -1.8931063

tcn_model/tcn_layer/residual_block_2/batch_normalization_5/batchnorm/mul f4 [16]
00000000: 9fdc dd3f 1aa5 9d3f 7cbb 1d40 1bcd 0740
00000010: 3bc8 b03f bb19 c13f 2b67 cb3f d39b a33f
00000020: 3f66 cc3f 8d8e d13f 7c61 bc3f 5c3e 0240
00000030: e948 b63f 29d7 8a3f 6218 a83f c1bd b93f
1.7332953 1.231601 2.4645681 2.1218936 1.3811105 1.5085977 1.5890859 1.2781929
1.5968703 1.6371628 1.471725 2.035056 1.4241 1.0846912 1.3132441 1.4511033

tcn_model/tcn_layer/residual_block_2/batch_normalization_5/batchnorm/sub f4 [16]
00000000: e17d 80bf 6d2c e03e bf24 2540 8357 9b3f
00000010: d8f7 c43e 82ff 71bf 3025 20bf 5d04 06bf
00000020: 5707 083f a41f 8c3e 0e54 183f e01d c63f
00000030: f667 223f c9cb 813f 18f3 85bc 292f 0c3f
-1.0038415 0.43783894 2.5803678 1.2136081 0.3847034 -0.945305 -0.62556744 -0.5235041
0.531362 0.2736789 0.5950326 1.5477867 0.6343988 1.0140315 -0.016351268 0.5475946

tcn_model/tcn_layer/residual_block_0/matching_conv1D/Conv1D f4 [16, 1, 1, 6]
00000000: 749c 1dbe 4879 923f 9ea7 f43e 8f4b e4be
00000010: 62b5 3cbe 7fac 6b3f 31f3 e3bd 1607 513e
00000020: 4a9a 19bf ec36 613d 6f1a 873e 7a56 463e
00000030: ec09 25bf 210e 29be 1cc2 413e 8087 cd3d
00000040: 4592 133e 77a8 ef3e fed6 4abf 0d2c ec3e
00000050: ad1a 193d 83e9 283f 3654 97be 0e55 6e3e
00000060: 0661 63bf 40b7 e3bc e747 2a3e c27b 023f
00000070: fce5 36bd 2381 afbf a136 b93e a7bf 993b
00000080: 8650 08be a9e9 63be 4117 d93e 23b3 143f
00000090: 2c44 70be 0880 5f3e 4f6b 893c f005 0bbf
000000a0: 971c 633e 54bb ce3e 754a 8f3f c91b d23e
000000b0: ea28 373e 70b6 e3be b426 0b3f 4d61 80bf
000000c0: 4b9f d73d 4ca3 183f 3ad3 36bf ac25 923e
000000d0: d854 11be d004 19be 0519 9abe 7df6 403e
000000e0: 8873 743e 26d1 053f 99df 2cbf ca15 9a3f
000000f0: 28fc be3d 1ca9 cc3e d3bf eabd f309 2dbf
00000100: 0fd2 0e3e 4ee8 d9bd e8e3 9c3e e87a 06bf
00000110: 6d95 9b3e 5eae 0cbf 75f0 bf3d 2e09 c7bd
00000120: bb92 adbf ceba 473d 9228 a8bc c8f5 0abe
00000130: ec95 6d3c a08f 5d3f 4db1 b9be cd14 173f
00000140: cbe3 b1be fa06 e8be 5a1e 3c3e f880 c2bf
00000150: dc37 38bf b20d 92bd d004 9c3e 1f3a ad3e
00000160: 7f22 ae3d c5f5 473e 8b35 e03d d5ba f9be
00000170: 2d5d f6be deda febe 6222 48bf 8763 6d3e
-0.15391713 1.1443262 0.47784132 -0.44588897 -0.18428567 0.92060083 -0.111303695 0.2041286
-0.6000105 0.05498402 0.26387355 0.19368926 -0.64468265 -0.16509296 0.18921703 0.1003561
0.14411266 0.46808216 -0.792343 0.46127358 0.037378956 0.6598131 -0.29556435 0.23274633
-0.8881992 -0.027797341 0.16628991 0.5097009 -0.044652924 -1.3711284 0.3617449 0.004692036
-0.13311967 -0.22257103 0.42400554 0.5808584 -0.23463506 0.21826184 0.016774802 -0.54305935
0.22178875 0.40377295 1.1194597 0.41036823 0.17886701 -0.44475126 0.5435593 -1.0029694
0.105284296 0.5962417 -0.71416056 0.28544366 -0.14192522 -0.14943242 -0.30097213 0.18844028
0.23872197 0.5227226 -0.6752868 1.20379 0.09325439 0.3997277 -0.11462369 -0.67593306
0.13947318 -0.10640012 0.3064263 -0.5253129 0.3038744 -0.54953563 0.093720354 -0.09718548
-1.3560404 0.048762135 -0.020527158 -0.1357032 0.014501076 0.8654728 -0.36268082 0.59016114
-0.34744105 -0.45317823 0.18370953 -1.5195608 -0.71960235 -0.071315184 0.30472422 0.33833405
0.08502673 0.19527347 0.109477125 -0.48775354 -0.48117962 -0.49776357 -0.78177464 0.23182498

tcn_model/tcn_layer/residual_block_2/conv1D_1/Conv1D f4 [16]
00000000: 0000 0000 0000 0000 0000 0000 0000 0000
00000010: 0000 0000 0000 0000 0000 0000 0000 0000
00000020: 0000 0000 0000 0000 0000 0000 0000 0000
00000030: 0000 0000 0000 0000 0000 0000 0000 0000
0.0 0.0 0.0 0.0 0.0 0.0 0.0 0.0
0.0 0.0 0.0 0.0 0.0 0.0 0.0 0.0

tcn_model/tcn_layer/residual_block_0/conv1D_0/Conv1D f4 [16, 1, 5, 6]
00000000: 6bb6 5dbd 2249 033e a7e7 c83e 0115 743d
00000010: 2cb9 9fbe 880c cb3c 39d4 03bc b687 a0be
00000020: 4bca 12be a0fb 7fbe 4515 53bc 354f 14bf
00000030: f017 d6be 14e6 f5bd 34cd 3c3e c40d 47be
00000040: 003e b63e d7e6 293d dbbf f43b 6a92 a4be
00000050: fce5 0bbf 1367 64be 258e fe3e 0481 14be
00000060: 20c6 f1bd ab71 2bbe a037 0d3e 550a 8abe
00000070: 5241 833d 808c 37bc b22b 44bd a96a a63e
00000080: 0f8b b33d 5969 193e 7713 9c3e ee1a f8bd
00000090: 66bb 0ebe 8a80 99be 0cd3 17be 7025 733c
000000a0: 6975 223e 634d 5f3e 05fa 29bd a5f7 053f
000000b0: ebc7 03bd 325a 9d3c c85e 4ebc 592c b6be
000000c0: 85a1 d63c 14ff e5be 7ed5 623e eadb 95be
000000d0: 3b55 f33d 8d92 5c3e 8c20 b03e fcaa e23e
000000e0: 3ddb 94bd 71f4 c5bd 5cc2 e3bc 62fe d73e
000000f0: 9144 9ebe bd9a 52be 1d65 acbe fd5f 243e
00000100: 3592 1f3e 40f4 98bc 52d4 0bbe ca92 59be
00000110: 9469 babe 32bb 093e 65bd 603c 2b27 103e
00000120: 42a0 763e 73c7 743e 16d3 f4bd 84c3 0c3d
00000130: 12b9 86be 0bd5 533e 9ac6 04bf a0bb 273e
00000140: d7de 80be 7bf6 503e 7d7b 1dbe 2d7b df3d
00000150: 8b61 1abf b7b3 9cbe dae1 93be 4cca 73be
00000160: 69ee 9bbe ce74 be3e 963e 43bc d5b3 2f3c
00000170: da46 873d 4461 3fbe 0c85 cd3e 6d99 103f
00000180: da5f 013e 3806 a23d dd47 b3be eab7 4b3e
00000190: df1f e5bd 353e 80be d56a a5be 94f1 013f
000001a0: 404a ef3e a477 5ebe 0655 b0be 2d1b 953e
000001b0: 636b 203e e772 85be 66fd c0be b2d1 853e
000001c0: 0c9d 103e 6749 ea3e 50c9 383e 1cd2 043e
000001d0: 4278 fa3b 4e26 523b 829e 093d 0b33 94be
000001e0: 62ff 41be 8038 f4bd c1d2 f93c 6fd0 1f3e
000001f0: d97d 2b3e 943b 1fbd ca2b e0be 70af dc3e
00000200: 12ea 9bbe 04ac 2a3e d006 8ebe d114 9a3e
00000210: f409 b93d 0baf 97be 7d15 7fbe f27a cb3e
00000220: 1096 603e 6ad0 19bf f621 283e b776 ddbe
00000230: 7b2d 873e 5689 03bf 4d86 2bbe c065 e23c
00000240: 39eb a73d 3006 d8be 324a 813e 079a 89be
00000250: de5c 373d f806 843e dbd7 d03e e4bb 9c3e
00000260: 96c1 d8bd b156 9d3d effd 1b3c 4363 3fbd
00000270: 9873 04be aaad 7dbe 22e2 003e 4860 ef3e
00000280: b33f 5b3e d23f cf3e c22f 1b3e 745e afbd
00000290: 4c05 d0be e3a5 8a3d 998e 8d3e 1c28 8b3e
000002a0: d411 d63e 79bd 593c a2e3 933e a22c 123d
000002b0: 17fc c23e 4f6e 4fbe ea06 4d3e bfe2 08bc
000002c0: 8deb fb3d 56c4 51be f408 84bd 8eeb 2d3d
000002d0: c854 9ebe 4bad edbe 3ba9 903e 2189 96be
000002e0: 0279 aebe 2fc3 6abd e63c 5d3e b5bd a23e
000002f0: cfde 063e a199 9bbd 5489 96be f4f0 a03e
00000300: 1f68 8e3d 78c5 bf3d 4a43 78bd cb0c cdbd
00000310: d65f bbbc e329 8f3e 5389 52bd 6891 f7bc
00000320: 27dc cf3d a2d7 46bd 9e01 52be afa9 c13e
00000330: 817f 113d 652e 08bf fc66 863e 0431 6f3e
00000340: dd76 b2bd fc77 72be 8919 9dbe a0ed 253c
00000350: 0494 39be c070 6d3e a204 823e b0a6 fc3e
00000360: 5aef 04be 754d c2be 9716 153e 38c1 82be
00000370: 115a 133f dbeb 5ebd d7cf 46bd 9857 20be
00000380: fd86 b53e 6aeb 503e 2b3d ac3e c5dd eabe
00000390: a07a fabe 28bf 363d 17bf adba 2b60 13be
000003a0: b28d 73be 87bf 61be fe45 89be 769a d63c
000003b0: 1c77 a13b 65c8 10be 5dfa 3c3e d478 f93d
000003c0: 8b8e 25bd ff81 053e 8608 5b3d 8816 81be
000003d0: d66d 84be c974 04bf 37a7 1cbe 652a 853b
000003e0: a340 313e 02d7 a3be cb49 c53d c616 7dbe
000003f0: 6eeb 013e b28b f53d c09f f4be ea69 9f3d
-0.054129045 0.12820867 0.39239237 0.059590343 -0.31195962 0.024786249 -0.008046203 -0.3135354
-0.14334981 -0.24998331 -0.012883489 -0.5793336 -0.41815138 -0.120067745 0.18437654 -0.19438845
0.35594177 0.04147991 0.00746916 -0.32142955 -0.54647803 -0.22304945 0.49717823 -0.1450234
-0.118053675 -0.1674258 0.1379075 -0.26961008 0.06408943 -0.011202931 -0.047893234 0.3250325
0.08766758 0.14981593 0.304836 -0.121145114 -0.13938674 -0.2998088 -0.14826602 0.014840469
0.15865101 0.21806864 -0.041498203 0.52331 -0.03217308 0.019208048 -0.01259584 -0.3558071
0.026200065 -0.44921172 0.22151753 -0.29269344 0.11881491 0.2154028 0.3439983 0.44271076
-0.07268379 -0.09665764 -0.027802639 0.42186266 -0.30911687 -0.2056684 -0.33670893 0.16052242
0.15583117 -0.018671155 -0.13655213 -0.21247402 -0.36408675 0.13450316 0.01371703 0.14077441
0.24084571 0.23904209 -0.11954324 0.034366146 -0.26313072 0.20686738 -0.5186554 0.16380167
-0.25170013 0.20406525 -0.15379138 0.10912166 -0.6030509 -0.30605862 -0.2888325 -0.23807639
-0.3045533 0.3719849 -0.011916777 0.010724028 0.06605311 -0.18689448 0.4014057 0.5648411
0.1263422 0.079113424 -0.35015765 0.19894376 -0.111877196 -0.2504746 -0.3230807 0.50759244
0.46736336 -0.21725327 -0.34439868 0.29122296 0.15665965 -0.26064226 -0.37693328 0.26136547
0.14122409 0.45759127 0.18045545 0.12970775 0.0076437304 0.0032066288 0.03359843 -0.28945193
-0.18945077 -0.11924839 0.030496003 0.15606855 0.16747226 -0.038875178 -0.43783408 0.43102598
-0.3045202 0.16667181 -0.27739573 0.30094007 0.090351015 -0.29625735 -0.24910541 0.39742237
0.21932244 -0.6008364 0.16419205 -0.43254635 0.26401886 -0.51381433 -0.1675045 0.027636409
0.08199162 -0.4219222 0.2525192 -0.26875326 0.0447663 0.25786567 0.40789685 0.306121
-0.105837986 0.07682551 0.009520992 -0.046725523 -0.1293472 -0.24773279 0.12586263 0.46753144
0.21411018 0.4047838 0.15154937 -0.085629374 -0.4062904 0.06769922 0.27647856 0.2717904
0.41810477 0.013289803 0.28884608 0.035687096 0.38082954 -0.20256923 0.20022169 -0.008354842
0.12300787 -0.20485052 -0.0644702 0.04246097 -0.30924058 -0.46421275 0.28254113 -0.29401496
-0.34076697 -0.057315048 0.21605262 0.3178536 0.13170932 -0.07597662 -0.29401648 0.31433833
0.06953453 0.09363836 -0.060611047 -0.10012206 -0.022872847 0.27961645 -0.051400494 -0.030220702
0.101494126 -0.048545487 -0.2050843 0.3782477 0.035521988 -0.5319579 0.26250446 0.23358542
-0.087140776 -0.23678583 -0.30683544 0.010127455 -0.1812287 0.23187542 0.2539416 0.49345922
-0.1298193 -0.3794972 0.14559399 -0.2553804 0.57559305 -0.054424148 -0.048538055 -0.15658414
0.3545455 0.20402303 0.33640417 -0.45872322 -0.4892168 0.044615895 -0.0013255802 -0.14392154
-0.23784521 -0.22045718 -0.26811212 0.0261967 0.004927529 -0.14138944 0.18454881 0.12181249
-0.040419143 0.13037871 0.053474925 -0.25212502 -0.25865048 -0.517407 -0.15298162 0.0040638917
0.17309813 -0.31999975 0.096332155 -0.24715719 0.12687466 0.119895354 -0.4777813 0.077838734

tcn_model/tcn_layer/residual_block_0/conv1D_1/Conv1D i1 [16, 1, 5, 16]
00000000: 1704 ef18 fd0e 4412 1fde ca2a 2ed1 1202
00000010: af08 30e6 542d 1435 39ed 9f5a 3c13 0ae6
00000020: eae9 7f1b f301 03da f0ec 0555 1dff 221b
00000030: 0c11 29e6 31fe d641 d52e bd31 43e0 04e2
00000040: 0d05 2e57 1724 2de5 97e1 d130 1ee6 cf28
00000050: 1f69 aa18 abe3 0f32 3196 be20 e22f e1bb
00000060: 301b 08da f4d9 a0fe 8c58 2ddb 2611 3809
00000070: cfc8 ab40 a0b5 a5f9 1116 12d1 ee2d ceba
00000080: fbec b211 0f81 bffe bec9 0fd9 cbab 0f2d
00000090: d136 c2d7 20ab 1dda 1cdf 9c0f 8746 059f
000000a0: 44d9 1228 06bb e1fc cbd1 0dda 1b0c 3316
000000b0: 1703 ecf6 cf1f 0b0d c5b7 ce81 0906 00f0
000000c0: e02a 0406 ed20 3ac2 d304 e5ba 0ef3 00da
000000d0: 1937 ebe0 fb0e f530 1ad4 e9fb f1d4 02f3
000000e0: ea1e ece2 a305 e8f6 dcc4 a4ec 04da 03ed
000000f0: f00d 0ff7 320f 4f17 a726 1edf f228 f019
23 4 -17 24 -3 14 68 18
31 -34 -54 42 46 -47 18 2
-81 8 48 -26 84 45 20 53
57 -19 -97 90 60 19 10 -26
-22 -23 127 27 -13 1 3 -38
-16 -20 5 85 29 -1 34 27
12 17 41 -26 49 -2 -42 65
-43 46 -67 49 67 -32 4 -30
13 5 46 87 23 36 45 -27
-105 -31 -47 48 30 -26 -49 40
31 105 -86 24 -85 -29 15 50
49 -106 -66 32 -30 47 -31 -69
48 27 8 -38 -12 -39 -96 -2
-116 88 45 -37 38 17 56 9
-49 -56 -85 64 -96 -75 -91 -7
17 22 18 -47 -18 45 -50 -70
-5 -20 -78 17 15 -127 -65 -2
-66 -55 15 -39 -53 -85 15 45
-47 54 -62 -41 32 -85 29 -38
28 -33 -100 15 -121 70 5 -97
68 -39 18 40 6 -69 -31 -4
-53 -47 13 -38 27 12 51 22
23 3 -20 -10 -49 31 11 13
-59 -73 -50 -127 9 6 0 -16
-32 42 4 6 -19 32 58 -62
-45 4 -27 -70 14 -13 0 -38
25 55 -21 -32 -5 14 -11 48
26 -44 -23 -5 -15 -44 2 -13
-22 30 -20 -30 -93 5 -24 -10
-36 -60 -92 -20 4 -38 3 -19
-16 13 15 -9 50 15 79 23
-89 38 30 -33 -14 40 -16 25

tcn_model/tcn_layer/residual_block_1/conv1D_0/Conv1D i1 [16, 1, 5, 16]
00000000: f2ba f6f3 6418 0516 c5d1 cdff 1653 19dc
00000010: 1b9e 05d8 f920 e032 f8e9 9e4a dc3d 271a
00000020: 450d 42e0 f61f 30f2 09cb faf8 0ac0 25ff
00000030: e7bf 0fef f602 1aef 0225 d42b d51b f3fc
00000040: f281 0bb3 c1ec ddc5 f733 f205 fe1d bb0d
00000050: cc3a f0bf e226 fee7 e507 eedd eaeb 4303
00000060: 6012 30ed 18ed f1ed 1533 3f44 d3fa ed06
00000070: cd41 ebc4 da2d c9f3 41db ba2c ff26 500d
00000080: 734b cd61 b0c9 000e 16b0 cd2d c9a9 d27f
00000090: 33b4 0022 3b0a ffff 354a b7e0 ff41 0dad
000000a0: ec1f f6d9 3fdc 81d4 f6e1 e0d0 f127 fc3a
000000b0: b65b ff83 3df4 d005 0c15 f33a 064c e8f5
000000c0: c448 070c bab2 bb10 b318 773b 29dd f7ec
000000d0: 0123 24fe 1904 2857 e2ac b414 109f 189a
000000e0: dfbf e244 1d4c d326 73b9 dc33 cbe3 d1ec
000000f0: e140 00b9 d5b0 3f06 fc15 1fd1 041b f402
-14 -70 -10 -13 100 24 5 22
-59 -47 -51 -1 22 83 25 -36
27 -98 5 -40 -7 32 -32 50
-8 -23 -98 74 -36 61 39 26
69 13 66 -32 -10 31 48 -14
9 -53 -6 -8 10 -64 37 -1
-25 -65 15 -17 -10 2 26 -17
2 37 -44 43 -43 27 -13 -4
-14 -127 11 -77 -63 -20 -35 -59
-9 51 -14 5 -2 29 -69 13
-52 58 -16 -65 -30 38 -2 -25
-27 7 -18 -35 -22 -21 67 3
96 18 48 -19 24 -19 -15 -19
21 51 63 68 -45 -6 -19 6
-51 65 -21 -60 -38 45 -55 -13
65 -37 -70 44 -1 38 80 13
115 75 -51 97 -80 -55 0 14
22 -80 -51 45 -55 -87 -46 127
51 -76 0 34 59 10 -1 -1
53 74 -73 -32 -1 65 13 -83
-20 31 -10 -39 63 -36 -127 -44
-10 -31 -32 -48 -15 39 -4 58
-74 91 -1 -125 61 -12 -48 5
12 21 -13 58 6 76 -24 -11
-60 72 7 12 -70 -78 -69 16
-77 24 119 59 41 -35 -9 -20
1 35 36 -2 25 4 40 87
-30 -84 -76 20 16 -97 24 -102
-33 -65 -30 68 29 76 -45 38
115 -71 -36 51 -53 -29 -47 -20
-31 64 0 -71 -43 -80 63 6
-4 21 31 -47 4 27 -12 2

tcn_model/tcn_layer/residual_block_1/conv1D_1/Conv1D i1 [16, 1, 5, 16]
00000000: 8ade ad1e 0e1d fdbd 0ac8 ed66 f728 ea3c
00000010: e318 fdaf cde3 ade4 fa12 2a00 8107 ace3
00000020: fb0e e104 4efa 072c 30e0 1208 d727 c714
00000030: af08 b60a 090b cc46 eb44 f702 a821 c1d3
00000040: eae8 9503 1e26 e3e8 03c4 db00 8bf4 3aef
00000050: 73cf eae9 e3db 19b2 100c 24e6 28ee 0fe7
00000060: 16f0 7bb3 e7b4 cfe7 363a c8f7 14dd f0e8
00000070: c7e8 7fd2 d8e0 e443 310a 08c7 f1fe 0a19
00000080: 2c21 1bbf ece3 b01c 31fd f722 031b 23f1
00000090: 300a 54f0 96a1 f537 3e46 2fe5 23ca ff39
000000a0: 55f3 1df4 44e1 d40e 250e 1624 edf1 b1cb
000000b0: 37bf d2c6 bb35 b40e ce02 10d4 d114 cafe
000000c0: 4408 eaf1 cc25 0cc4 91bc 1fa7 073f 1310
000000d0: 2ae8 eb00 4f48 e1b3 c8b3 cccd 101b 3627
000000e0: 1def a20f 307f 63f6 f0cc cf29 fd10 3407
000000f0: 0c14 4499 3707 ac3e 75b8 cdde 2228 f1d2
-118 -34 -83 30 14 29 -3 -67
10 -56 -19 102 -9 40 -22 60
-29 24 -3 -81 -51 -29 -83 -28
-6 18 42 0 -127 7 -84 -29
-5 14 -31 4 78 -6 7 44
48 -32 18 8 -41 39 -57 20
-81 8 -74 10 9 11 -52 70
-21 68 -9 2 -88 33 -63 -45
-22 -24 -107 3 30 38 -29 -24
3 -60 -37 0 -117 -12 58 -17
115 -49 -22 -23 -29 -37 25 -78
16 12 36 -26 40 -18 15 -25
22 -16 123 -77 -25 -76 -49 -25
54 58 -56 -9 20 -35 -16 -24
-57 -24 127 -46 -40 -32 -28 67
49 10 8 -57 -15 -2 10 25
44 33 27 -65 -20 -29 -80 28
49 -3 -9 34 3 27 35 -15
48 10 84 -16 -106 -95 -11 55
62 70 47 -27 35 -54 -1 57
85 -13 29 -12 68 -31 -44 14
37 14 22 36 -19 -15 -79 -53
55 -65 -46 -58 -69 53 -76 14
-50 2 16 -44 -47 20 -54 -2
68 8 -22 -15 -52 37 12 -60
-111 -68 31 -89 7 63 19 16
42 -24 -21 0 79 72 -31 -77
-56 -77 -52 -51 16 27 54 39
29 -17 -94 15 48 127 99 -10
-16 -52 -49 41 -3 16 52 7
12 20 68 -103 55 7 -84 62
117 -72 -51 -34 34 40 -15 -46

tcn_model/tcn_layer/residual_block_2/conv1D_0/Conv1D i1 [16, 1, 5, 16]
00000000: fd41 d6ad ddde 0e0c 14fd 0d43 e8f2 eb81
00000010: 34e6 08f5 010a f435 ebe7 fb12 ea1e dabb
00000020: 2a39 d626 f140 45cd df41 e72b 15f9 ffa2
00000030: 0030 e20e f505 cd13 d146 481f 28f9 03c5
00000040: 2800 e621 0642 e102 af27 d6ed fff9 1806
00000050: fbdd f426 ebfc e8d0 ce1b 35eb 2510 e601
00000060: 0410 1616 f727 00f2 0a14 e0c0 dd13 f4ce
00000070: 072d 1edd eef0 f421 c1e8 00e5 d109 13d9
00000080: 1cea 3da1 22e1 c808 16df 1afa cfd8 fded
00000090: ec5c 3df7 282e 8129 d428 1009 91d9 0704
000000a0: 1f0e 0206 43e8 07e4 cce2 d507 dec0 d4f5
000000b0: 28e2 1e08 e21d aab5 f2ec f2d5 d60e 30cc
000000c0: 4b16 0634 fa26 20e7 0bf1 fcfa 29f0 42fc
000000d0: 5de9 0537 df53 95bd f4ff 4248 0500 25fd
000000e0: febb d7a6 2a90 b970 2b81 d7c7 fd00 eecb
000000f0: 0a03 db12 0911 00e1 ffef 36c3 e19c c6de
-3 65 -42 -83 -35 -34 14 12
20 -3 13 67 -24 -14 -21 -127
52 -26 8 -11 1 10 -12 53
-21 -25 -5 18 -22 30 -38 -69
42 57 -42 38 -15 64 69 -51
-33 65 -25 43 21 -7 -1 -94
0 48 -30 14 -11 5 -51 19
-47 70 72 31 40 -7 3 -59
40 0 -26 33 6 66 -31 2
-81 39 -42 -19 -1 -7 24 6
-5 -35 -12 38 -21 -4 -24 -48
-50 27 53 -21 37 16 -26 1
4 16 22 22 -9 39 0 -14
10 20 -32 -64 -35 19 -12 -50
7 45 30 -35 -18 -16 -12 33
-63 -24 0 -27 -47 9 19 -39
28 -22 61 -95 34 -31 -56 8
22 -33 26 -6 -49 -40 -3 -19
-20 92 61 -9 40 46 -127 41
-44 40 16 9 -111 -39 7 4
31 14 2 6 67 -24 7 -28
-52 -30 -43 7 -34 -64 -44 -11
40 -30 30 8 -30 29 -86 -75
-14 -20 -14 -43 -42 14 48 -52
75 22 6 52 -6 38 32 -25
11 -15 -4 -6 41 -16 66 -4
93 -23 5 55 -33 83 -107 -67
-12 -1 66 72 5 0 37 -3
-2 -69 -41 -90 42 -112 -71 112
43 -127 -41 -57 -3 0 -18 -53
10 3 -37 18 9 17 0 -31
-1 -17 54 -61 -31 -100 -58 -34

tcn_model/tcn_layer/residual_block_2/conv1D_1/Conv1D1 i1 [16, 1, 5, 16]
00000000: 11d1 e115 ce5a 1f0f 0aa7 ca1f 24dd ebd4
00000010: f9fc f432 403e 1c36 1dfe ed2f 0fff f710
00000020: 3516 1515 1e7f d324 3d0d 17d8 f0d1 36ff
00000030: f6e6 1b4c 1f14 db35 2bfc eec2 d6b5 c90d
00000040: c81d ec0f 0d26 f201 eeff 1823 fcd7 c611
00000050: 0bd4 415b d7e7 d0ea 0ed4 04ec e417 f31d
00000060: c5f3 9b24 bfd3 d9ea 01e9 1add feff ff35
00000070: befe 81c0 1458 56b7 ad19 182e 1df5 6415
00000080: 2bb2 06a6 333b 6dac eb81 ec05 301e 1ef2
00000090: 5f0e 6030 78d2 3b01 ecaf 5ad3 4728 0719
000000a0: aec6 edc5 06f4 d7cd ba1b f33e 61d0 283b
000000b0: bbde e3ac bf02 b708 e6ff b960 f916 612e
000000c0: 164e acd7 cfcd edd9 f9e9 a2f5 0baf 0cf9
000000d0: f83a 12dd da2a f605 375d 9e05 1f05 2b9f
000000e0: 315b dcfd ed2d fb4a 0f07 dc95 e381 0409
000000f0: b8e9 e5d7 1e8f af2f 0d20 edeb d81a 114b
17 -47 -31 21 -50 90 31 15
10 -89 -54 31 36 -35 -21 -44
-7 -4 -12 50 64 62 28 54
29 -2 -19 47 15 -1 -9 16
53 22 21 21 30 127 -45 36
61 13 23 -40 -16 -47 54 -1
-10 -26 27 76 31 20 -37 53
43 -4 -18 -62 -42 -75 -55 13
-56 29 -20 15 13 38 -14 1
-18 -1 24 35 -4 -41 -58 17
11 -44 65 91 -41 -25 -48 -22
14 -44 4 -20 -28 23 -13 29
-59 -13 -101 36 -65 -45 -39 -22
1 -23 26 -35 -2 -1 -1 53
-66 -2 -127 -64 20 88 86 -73
-83 25 24 46 29 -11 100 21
43 -78 6 -90 51 59 109 -84
-21 -127 -20 5 48 30 30 -14
95 14 96 48 120 -46 59 1
-20 -81 90 -45 71 40 7 25
-82 -58 -19 -59 6 -12 -41 -51
-70 27 -13 62 97 -48 40 59
-69 -34 -29 -84 -65 2 -73 8
-26 -1 -71 96 -7 22 97 46
22 78 -84 -41 -49 -51 -19 -39
-7 -23 -94 -11 11 -81 12 -7
-8 58 18 -35 -38 42 -10 5
55 93 -98 5 31 5 43 -97
49 91 -36 -3 -19 45 -5 74
15 7 -36 -107 -29 -127 4 9
-72 -23 -27 -41 30 -113 -81 47
13 32 -19 -21 -40 26 17 75
