model_sandbox/CICIDS/random_tree.tflite (tflite, 27232 bytes, 4 tensors)

sequential/dense/BiasAdd/ReadVariableOp f4 [67]
-0.813876 -1.269194 2.8418307 -0.33485305 1.8449563 0.44242483 -2.0060036 -2.0040948
-0.9719721 -0.007855298 -1.3603646 -2.6025903 -3.216865 -1.3307581 1.5616529 1.1814029
-0.7768464 2.1470857 -2.666456 -0.44913325 -0.41144705 -0.8594422 -1.7480196 0.27849057
-0.76689 0.8565996 0.75005877 -1.528515 -0.3460939 -0.84213907 -2.7129564 -0.44003683
-1.3173224 0.19329299 -0.76392996 -0.5561453 -0.63671064 -1.6420449 -0.6080383 -0.53177214
-0.34497154 -0.4556455 1.2654756 -0.5244405 -1.1838801 -1.2638543 -0.71371156 0.22211541
1.1321323 -1.6220791 -0.34613305 -0.9668008 -2.7679815 -0.25665414 -1.478044 -2.4077415
-0.072190665 -2.8272903 -0.42401564 -4.727179 -1.2044795 0.4891434 0.51234835 -3.182989
-1.7511694 0.0029856993 -3.6383386
00000000: 2d5a 50bf f374 a2bf 8ee0 3540 dc71 abbe
00000010: 8727 ec3f 8285 e23e 5d62 00c0 1743 00c0
00000020: 2ad3 78bf 82b3 00bc 6d20 aebf d790 26c0
00000030: 1ee1 4dc0 4856 aabf 3ee4 c73f 3638 973f
00000040: 68df 46bf da69 0940 37a7 2ac0 cbf4 e5be
00000050: 30a9 d2be 6704 5cbf 1bbf dfbf 5196 8e3e
00000060: e752 44bf 1d4a 5b3f da03 403f 61a6 c3bf
00000070: 3833 b1be 6d96 57bf 14a1 2dc0 824c e1be
00000080: 059e a8bf 99ee 453e ea90 43bf 8a5f 0ebf
00000090: 78ff 22bf 872e d2bf 66a8 1bbf 3822 08bf
000000a0: 1ca0 b0be 5e4a e9be 1bfb a13f bc41 06bf
000000b0: 6289 97bf fac5 a1bf cdb5 36bf 3972 633e
000000c0: b6e9 903f 4aa0 cfbf 5a38 b1be 4280 77bf
000000d0: 9c26 31c0 2c68 83be 8c30 bdbf 7018 1ac0
000000e0: b3d8 93bd 53f2 34c0 9418 d9be 0d45 97c0
000000f0: 622c 9abf 0171 fa3e 4329 033f 17b6 4bc0
00000100: 5226 e0bf b9ab 433b 8ada 68c0

sequential/dense_1/BiasAdd/ReadVariableOp f4 [15]
3.514373 -2.2339978 -4.1338515 -0.31134304 -0.50594604 -0.13030182 0.09533766 -5.676424
-12.520136 -7.3088574 -2.1515348 -4.676343 -3.690746 -9.000621 -4.6751804
00000000: 7deb 6040 d2f9 0ec0 8348 84c0 5b68 9fbe
00000010: ae85 01bf d76d 05be 6440 c33d 44a5 b5c0
00000020: 7a52 48c1 29e2 e9c0 bfb2 09c0 9aa4 95c0
00000030: 2f35 6cc0 8b02 10c1 149b 95c0

sequential/dense/MatMul f4 [67, 78]
0.029838357 0.10411945 0.36250958 0.5672022 0.18490344 -0.12681398 -0.38279185 1.0256761
-0.09027433 -0.4303849 -0.9232143 1.5001225 -0.69897807 -1.5535356 -0.21664244 -0.18299487
-0.7229305 -0.9261965 -0.051872455 0.01304949 0.17705102 -1.0699642 -0.94808084 -0.15285994
-0.16478479 -0.38627604 -0.71065426 -0.27940175 -0.20830877 -0.011698255 -0.41856134 -0.14429478
0.22203274 0.07750277 0.07791469 0.030560998 0.16823712 -0.17849056 1.6837224 -1.3083516
-1.3967152 -1.5034285 -1.5424 -0.71659875 -0.47348553 0.09660755 -0.84582764 -1.2105495
1.7862601 0.10262644 -0.11965036 -0.05687395 -1.2737025 -0.37974912 -0.9080913 0.06600082
0.06360687 0.1842808 -0.18300824 -0.089116886 -0.0026189834 -0.010064676 0.484277 -0.02229447
0.4428817 -0.30444476 -0.14031957 -0.52471143 0.8912647 0.3659874 1.1414477 0.9172423
1.212938 0.57408214 -0.10776498 1.0076234 -0.057199225 -0.16761382 0.0034235455 -0.4115153
0.08847732 0.15423849 0.08105339 0.07791816 2.3924487 6.2339416 1.4269302 2.3851974
-0.74146074 5.295971 -1.552568 0.3161051 -2.8347142 -0.77037656 -0.004522798 -0.1992011
-0.5248032 -0.0121218525 -0.36084878 0.18234678 0.43382818 -0.5854415 -0.029024737 0.42780575
-0.20650272 0.065537356 -0.244394 -0.012888771 4.258947 -0.13128093 -0.1291256 0.1235023
-0.8261583 -0.6792383 -1.6325587 0.1398605 9.237341 -1.6691132 -2.0916395 -1.9143276
-4.1006045 -5.487416 4.3425474 1.8149898 -0.71550494 -1.4261732 2.2065885 0.10818184
1.7384897 1.119445 -2.2135077 1.449193 -1.7260869 -1.0341461 -0.1713303 0.06478034
0.14926215 -0.1704252 -0.093379885 0.02498056 0.241991 -0.18883388 0.061241068 0.23309475
-1.8802633 0.49221507 -0.020302327 -6.040188 1.8563979 3.0594869 2.2094343 2.2354949
-0.5239925 -1.0474014 -0.9029515 -0.21899532 -11.11123 -2.0399172 -0.38281465 1.8328829
-1.7773204 -1.0948088 -2.1062262 6.397803 -2.4448218 2.6076 -1.3757212 -5.4760695
-2.3842835 2.3627214 -1.6308295 -1.2126881 -2.4341633 -2.3698328 -2.0955555 -0.8343209
-2.3677642 -2.5566354 -3.7294838 -2.6478934 -0.027154047 -0.8658919 -0.54331094 -0.86181116
-0.9277287 -0.027715662 1.5545108 0.09927715 0.024337342 -0.1181423 -1.7121028 4.1027746
-1.5118803 -0.13517214 -5.3162007 -1.5516813 -2.4887578 -1.5255408 -0.5486735 9.659739
1.4615619 -0.122645855 -3.2654939 -0.09486931 -0.9341436 0.16315523 -0.19459149 1.4486452
-2.651393 -2.7779303 -2.255557 -1.9495991 0.19092186 0.090713456 0.023561925 0.13927554
-0.12619472 -0.11103911 -0.55988634 -1.5151513 1.7801857 -1.2406708 -6.0077257 0.08200563
1.5353324 -1.7869681 -1.1522499 -0.642335 -0.6904293 -0.77936655 -0.81394005 -0.4878818
-0.74191993 -0.95643765 -5.181083 -2.2204 0.64169055 -0.20482652 -1.1035774 0.25578964
-0.2945739 0.13700387 -0.27040792 -0.9186207 -0.1660058 -0.0559507 -0.46003184 0.022932693
-0.706027 -0.5780393 -4.626497 -5.1144066 -3.7033803 -0.544394 -2.013445 -4.7299595
00000000: 926f f43c 943c d53d db9a b93e 2a34 113f
00000010: 5457 3d3e 86db 01be 4bfd c3be 5b49 833f
00000020: bfe1 b8bd 695b dcbe c657 6cbf 0404 c03f
00000030: 3af0 32bf 41da c6bf 84d7 5dbe 0263 3bbe
00000040: f911 39bf 371b 6dbf 3678 54bd 87cd 553c
00000050: dd4c 353e 96f4 88bf 6db5 72bf 5187 1cbe
00000060: 58bd 28be f9c5 c5be 70ed 35bf bf0d 8fbe
00000070: e54e 55be 0aaa 3fbc ac4d d6be 03c2 13be
00000080: 8d5c 633e c6b9 9e3d bd91 9f3d 0f5b fa3c
00000090: 5a46 2c3e 3bc6 36be 3784 d73f 1178 a7bf
000000a0: 90c7 b2bf 5870 c0bf 5d6d c5bf 0473 37bf
000000b0: b26c f2be 2eda c53d 2988 58bf 49f3 9abf
000000c0: 2ca4 e43f d02d d23d 3f0b f5bd a9f4 68bd
000000d0: af08 a3bf 7a6e c2be ac78 68bf 702b 873d
000000e0: 5244 823d 1bb4 3c3e 8366 3bbe ea82 b6bd
000000f0: 40a3 2bbb 50e6 24bc 28f3 f73e e4a2 b6bc
00000100: 64c1 e23e 2fe0 9bbe efaf 0fbe 7d53 06bf
00000110: ec29 643f b362 bb3e f51a 923f 64d0 6a3f
00000120: 8d41 9b3f 0cf7 123f e3b3 dcbd cef9 803f
00000130: bc49 6abd f5a2 2bbe 905d 603b 22b2 d2be
00000140: 9933 b53d b2f0 1d3e 52ff a53d 8e93 9f3d
00000150: e11d 1940 737c c740 a6a5 b63f 13a7 1840
00000160: 5fd0 3dbf 9878 a940 8cba c6bf 87d8 a13e
00000170: f56b 35c0 6637 45bf fb33 94bb 60fb 4bbe
00000180: 8159 06bf bc9a 46bc 2cc1 b8be 1db9 3a3e
00000190: ba1e de3e 7fdf 15bf 49c5 edbc 5b09 db3e
000001a0: 7375 53be 7338 863d 6c42 7abe 6c2b 53bc
000001b0: 4b49 8840 826e 06be 8039 04be c6ee fc3d
000001c0: 1c7f 53bf 90e2 2dbf aff7 d0bf 9737 0f3e
000001d0: 26cc 1341 80a5 d5bf 6cdd 05c0 b008 f5bf
000001e0: 2738 83c0 e998 afc0 26f6 8a40 9651 e83f
000001f0: 552b 37bf d88c b6bf bf38 0d40 718e dd3d
00000200: d586 de3f f949 8f3f 1caa 0dc0 287f b93f
00000210: 6af0 dcbf e65e 84bf 3671 2fbe 8eab 843d
00000220: 2dd8 183e f283 2ebe f43d bfbd 08a4 cc3c
00000230: 7dcc 773e ab5d 41be ead7 7a3d 64b0 6e3e
00000240: 78ac f0bf 9d03 fc3e 1151 a6bc 3849 c1c0
00000250: 729e ed3f a2ce 4340 5f67 0d40 5912 0f40
00000260: 5f24 06bf 4011 86bf d427 67bf 4f40 60be
00000270: 99c7 31c1 018e 02c0 4800 c4be e89b ea3f
00000280: 3c7f e3bf b222 8cbf 69cc 06c0 cdba cc40
00000290: f677 1cc0 ebe2 2640 a217 b0bf f63b afc0
000002a0: 1a98 18c0 d436 1740 05bf d0bf 5d39 9bbf
000002b0: 55c9 1bc0 57ab 17c0 951d 06c0 0e96 55bf
000002c0: 7389 17c0 ea9f 23c0 ddaf 6ec0 1677 29c0
000002d0: 2a72 debc 17ab 5dbf 6d16 0bbf a89f 5cbf
000002e0: a17f 6dbf f50b e3bc 36fa c63f d251 cb3d
000002f0: 1b5f c73c 97f4 f1bd 2f26 dbbf ee49 8340
00000300: 4b85 c1bf 916a 0abe 511e aac0 7e9d c6bf
00000310: cf47 1fc0 ec44 c3bf de75 0cbf 4a8e 1a41
00000320: 7614 bb3f c02d fbbd dafd 50c0 d74a c2bd
00000330: 0924 6fbf 2a12 273e fe42 47be 356d b93f
00000340: 6cb0 29c0 9cc9 31c0 0c5b 10c0 778c f9bf
00000350: 0581 433e fac7 b93d f004 c13c 3f9e 0e3e
00000360: 3039 01be 7968 e3bd b654 0fbf 7af0 c1bf
00000370: 20dd e33f 4dce 9ebf 4a3f c0c0 91f2 a73d
00000380: c685 c43f 5fbb e4bf ed7c 93bf 1170 24bf
00000390: f9bf 30bf 9184 47bf 605e 50bf a5cb f9be
000003a0: 77ee 3dbf 19d9 74bf 6fcb a5c0 091b 0ec0
000003b0: d545 243f 0bbe 51be 0642 8dbf dcf6 823e
000003c0: 64d2 96be be4a 0c3e e872 8abe ba2a 6bbf
000003d0: 6dfd 29be 902c 65bd 4b89 ebbe 58dd bb3c
000003e0: 2fbe 34bf 62fa 13bf 430c 94c0 38a9 a3c0
000003f0: 2f04 6dc0 685d 0bbf 48dc 00c0 d45b 97c0

sequential/dense_1/MatMul f4 [15, 67]
-0.037466235 -0.38425305 -0.2571233 0.020375151 -0.100020766 -0.5085386 -0.29203755 -0.1600083
-0.0036950838 -0.15975572 -0.004305088 0.03436892 -0.7682634 -0.39842066 -0.4412351 -0.108118795
-0.03000805 -0.29708722 -0.17527312 -0.42735097 -0.4970488 -0.097028695 -0.23571984 -0.24530205
-0.22105515 -0.05325635 -0.23410359 -0.56867325 -0.17859071 -0.33612785 -0.719629 -0.058025863
-0.011691652 -0.4563806 0.045006342 -0.36692196 -0.7309193 -0.2563197 -0.24409144 -0.048065096
-0.7497792 -0.7391505 0.031751238 -0.10943576 -0.064999364 0.00963935 0.09465307 -0.35079792
-0.021902213 0.016615182 -0.70264816 -0.25917864 -0.36877578 -0.5001433 -0.1359799 -0.5091754
-0.68785197 -0.17027247 -0.42814562 -0.2494661 -0.15489402 -0.61916053 -0.203345 -0.14785506
-0.46014825 -0.4357622 0.0789314 -3.982033 -0.418834 -6.0250874 -3.2343788 -9.059692
-1.2114165 -0.68215656 0.040566117 -2.095542 -0.0898241 -2.001119 -2.2877533 -2.5176413
-9.234333 0.0746548 -3.8341796 -2.252824 -1.6722761 -1.9326246 -0.73498714 -6.2851024
-7.2732983 -4.0234766 -3.8814416 -0.84987056 -0.046353325 -2.601326 -5.118647 -2.1881223
-0.33656088 -3.0703728 -5.9049525 -0.88257617 -4.351188 -5.6762934 -0.002912373 -3.5199034
-0.82332236 -0.5256238 -4.2375784 -0.8028638 -6.805503 0.46724966 -2.4404228 -5.32051
-1.834383 -2.6656919 -0.32753232 -0.14933696 -2.0102005 -8.239534 -2.0292032 -0.40308905
-0.8717629 -6.8949885 -3.9259598 -0.70731044 -1.165694 -3.3039722 -0.2973619 -0.15096891
0.49897343 -0.82222646 -0.49917167 -2.8700879 -4.4332423 -4.262911 -0.625207 -1.6580914
-0.252399 -0.15709837 0.55661875 -0.60804355 -0.10456607 -0.9545054 -4.4869976 -0.107631564
-4.2525826 -3.5296118 -5.3421936 -0.020853024 -1.1553453 -0.061722636 0.2664488 -1.0707632
-3.0525897 -1.1651375 -0.16393067 -2.7986765 -0.47639447 -1.112357 -1.0063316 -0.04508465
-1.0681831 -0.23361155 -1.4040656 -1.1030446 -0.29470494 0.07500205 -0.5841563 -0.50299716
-0.49313682 0.112024836 -0.1902742 -1.5409509 -0.0055106687 -2.9699671 -2.39223 0.023082698
-0.9792709 -3.214555 0.34767023 0.44665754 -0.86958015 -0.9636842 -0.5082488 -1.542694
0.11773216 -1.9145913 -3.2627525 -0.7406457 0.39014348 -3.7891638 -1.101593 -2.5114021
-1.3466911 -1.8086836 -4.056338 -3.1104412 0.21834603 -0.1782503 -0.21074967 0.052680638
0.06931758 -3.5468721 -1.4857713 -4.2403407 -2.218314 -1.7778039 -1.0600159 -0.72892725
-0.3879241 -5.756602 -4.716226 -4.5382404 -3.797064 -2.3617344 -2.0242105 -5.190314
0.2242057 -5.8915343 -2.6763926 -3.92885 -1.2537315 -1.0957388 -3.3497708 -2.470534
-2.4705818 -2.4173303 -4.357939 -2.6428318 -0.23252773 -1.799408 -2.8015924 -0.6651649
-5.467377 -3.2334564 0.14581585 0.24174306 -4.443493 -4.0292478 -0.40721622 -2.3861604
-5.006076 -1.013731 -0.21455264 -2.8675132 -0.62227136 -3.415526 -0.63843447 -2.0346181
-1.3346028 -1.2160106 -0.9459756 -4.2401037 -2.7268226 -3.0819128 -3.033954 -2.8796897
00000000: 3276 19bd d1bc c4be aaa5 83be cae9 a63c
00000010: b0d7 ccbd 962f 02bf f285 95be 37d9 23be
00000020: 3829 72bb 0197 23be b211 8dbb 6dc6 0c3d
00000030: e9ac 44bf cbfd cbbe 91e9 e1be 636d ddbd
00000040: 71d3 f5bc d11b 98be cc7a 33be bfcd dabe
00000050: 2e7d febe fbb6 c6bd 8b60 71be 7630 7bbe
00000060: 485c 62be 5523 5abd dab8 6fbe 9294 11bf
00000070: 7ce0 36be f318 acbe 9b39 38bf 87ac 6dbd
00000080: 588e 3fbc b8aa e9be 9258 383d 32dd bbbe
00000090: 871d 3bbf 563c 83be 1bf3 79be e8df 44bd
000000a0: 88f1 3fbf f838 3dbf 960d 023d db1f e0bd
000000b0: 631e 85bd 5dee 1d3c 78d9 c13d c99b b3be
000000c0: 456c b3bc 901c 883c c0e0 33bf 10b3 84be
000000d0: 2ed0 bcbe 6409 00bf 513e 0bbe 5259 02bf
000000e0: 1117 30bf e85b 2ebe e735 dbbe 0b74 7fbe
000000f0: 8a9c 1ebe 4e81 1ebf ac39 50be 5167 17be
00000100: 8d98 ebbe 391c dfbe c9a6 a13d a1d9 7ec0
00000110: 6971 d6be 84cd c0c0 1000 4fc0 80f4 10c1
00000120: b20f 9bbf d0a1 2ebf a828 263d 5c1d 06c0
00000130: b3f5 b7bd 5512 00c0 8d6a 12c0 0921 21c0
00000140: d4bf 13c1 9ee4 983d 3363 75c0 452e 10c0
00000150: 250d d6bf 3e60 f7bf 1e28 3cbf 8f1f c9c0
00000160: dcbe e8c0 52c0 80c0 8a69 78c0 1e91 59bf
00000170: fcdc 3dbd 207c 26c0 f5cb a3c0 320a 0cc0
00000180: b551 acbe fd80 44c0 5ff5 bcc0 83f0 61bf
00000190: ef3c 8bc0 32a4 b5c0 83dd 3ebb 1946 61c0
000001a0: 41c5 52bf 488f 06bf 3e9a 87c0 7b88 4dbf
000001b0: aec6 d9c0 593b ef3e e32f 1cc0 9e41 aac0
000001c0: 10cd eabf b29a 2ac0 51b2 a7be caeb 18be
000001d0: 20a7 00c0 22d5 03c1 77de 01c0 b061 cebe
000001e0: da2b 5fbf bfa3 dcc0 ed42 7bc0 4c12 35bf
000001f0: 7635 95bf 4874 53c0 d23f 98be 9897 1abe
00000200: 7279 ff3e 6f7d 52bf 6e93 ffbe 85af 37c0
00000210: 1fdd 8dc0 c469 88c0 910d 20bf 573c d4bf
00000220: 713a 81be 65de 20be 917e 0e3f bea8 1bbf
00000230: bc26 d6bd 775a 74bf 7c95 8fc0 f06d dcbd
00000240: 2815 88c0 29e5 61c0 40f3 aac0 f6d3 aabc
00000250: 5be2 93bf e0d0 7cbd fa6b 883e c50e 89bf
00000260: a15d 43c0 3a23 95bf 71dd 27be 841d 33c0
00000270: fae9 f3be b761 8ebf 79cf 80bf afaa 38bd
00000280: 39ba 88bf de37 6fbe 6cb8 b3bf 9130 8dbf
00000290: 91e3 96be ad9a 993d 448b 15bf 6cc4 00bf
000002a0: 6e7c fcbe 476d e53d 3dd7 42be e13d c5bf
000002b0: d792 b4bb f113 3ec0 4c1a 19c0 ed17 bd3c
000002c0: 7fb1 7abf 45bb 4dc0 d501 b23e 4cb0 e43e
000002d0: ce9c 5ebf 02b4 76bf 981c 02bf ff76 c5bf
000002e0: 8f1d f13d 5411 f5bf f0d0 50c0 f59a 3dbf
000002f0: e3c0 c73e a981 72c0 0001 8dbf d0ba 20c0
00000300: 6060 acbf f282 e7bf 85cd 81c0 7811 47c0
00000310: 1a96 5f3e 3f87 36be c3ce 57be a7c7 573d
00000320: 60f6 8d3d f4ff 62c0 c12d bebf dfb0 87c0
00000330: dbf8 0dc0 148f e3bf 9aae 87bf fa9a 3abf
00000340: fd9d c6be 1536 b8c0 53eb 96c0 4439 91c0
00000350: 1903 73c0 a826 17c0 aa8c 01c0 0d17 a6c0
00000360: 2e96 653e 7387 bcc0 044a 2bc0 4772 7bc0
00000370: 467a a0bf 2b41 8cbf a562 56c0 3b1d 1ec0
00000380: 031e 1ec0 8ab5 1ac0 3c74 8bc0 2824 29c0
00000390: c01b 6ebe 0053 e6bf 4a4d 33c0 3f48 2abf
000003a0: c1f4 aec0 f3f0 4ec0 c050 153e 7e8b 773e
000003b0: 1831 8ec0 99ef 80c0 a57e d0be dab6 18c0
000003c0: c631 a0c0 f0c1 81bf b0b3 5bbe 5685 37c0
000003d0: 2d4d 1fbf fa97 5ac0 7170 23bf 2f37 02c0
000003e0: 44d4 aabf 3ca6 9bbf 752b 72bf eeae 87c0
000003f0: 4384 2ec0 0f3e 45c0 4d2c 42c0 d64c 38c0
