model_sandbox/MNIST/mnistnn.tflite (tflite, 408864 bytes, 4 tensors)

sequential/dense/BiasAdd/ReadVariableOp f4 [128]
0	0x3e12d8d3	0.14340524
1	0xbc4dd247	-0.012562341
2	0xbd4eadcc	-0.050458714
3	0x3d90be30	0.070675254
4	0x3d85ed9a	0.065394595
5	0x3c9d7a08	0.019223228
6	0xbd0513e7	-0.032489683
7	0x3d43e57a	0.047826268
8	0x3d4349c4	0.04767777
9	0x3d1c26f5	0.03812309
10	0x3ccf8686	0.0253327
11	0x3d871550	0.06595862
12	0x3cad3af0	0.021146268
13	0x3d82a1be	0.06378506
14	0x3cd4e28e	0.025986936
15	0xbd61b751	-0.055106465
16	0x3d71d70e	0.059042983
17	0x3d3197df	0.043357726
18	0xbd1c26fe	-0.038123123
19	0x3c02df1e	0.007987766
20	0x3ba93779	0.0051640836
21	0x3caac2b6	0.020844799
22	0xbca20ed1	-0.019782456
23	0x3d21c01c	0.03948985
24	0x3b930927	0.004487175
25	0x3cfdba7c	0.030972712
26	0xbce401f8	-0.02783297
27	0x3c72fb4f	0.014830424
28	0xbdab8cd6	-0.08376472
29	0x3b8e4470	0.0043416545
30	0x3d6022b1	0.054720584
31	0x3d06b62c	0.032888576
32	0x3d1c5fcb	0.038177293
33	0xbb806100	-0.0039178133
34	0x3dc01284	0.093785316
35	0xbd96953b	-0.07352682
36	0xba2db893	-0.000662693
37	0x3c4b643d	0.012414035
38	0x3d3ed2af	0.046587642
39	0x3d39c826	0.045356892
40	0x3cf81462	0.030283157
41	0x3d670d89	0.056409393
42	0xbc2bffe4	-0.010498021
43	0x3c7ef1e2	0.015560599
44	0x3d1f4ae1	0.03888977
45	0x3cef0203	0.029175764
46	0x3cc1a554	0.023638405
47	0xbd4feb65	-0.0507616
48	0xbc39e212	-0.011345403
49	0xbb56b522	-0.0032761772
50	0x3c176308	0.0092399195
51	0x3def235d	0.11676667
52	0x3d7859b0	0.060632408
53	0xbd847b86	-0.06468873
54	0xbd86a10e	-0.065736875
55	0xbc4dca3f	-0.012560426
56	0xbbf76244	-0.007549556
57	0xbc814a8e	-0.01578262
58	0x3ca3b5b2	0.0199841
59	0x3d2d8138	0.04235956
60	0xbc368674	-0.011140455
61	0x3bf75900	0.0075484514
62	0x3d8549ec	0.0650824
63	0x3cc165b3	0.023608064
64	0x3db1bd48	0.08678681
65	0x3d8edd4d	0.069758035
66	0x3d94e4cb	0.07270201
67	0xbca8cf6f	-0.020606725
68	0x3d2ff2e9	0.042956267
69	0x3e00952c	0.12556905
70	0x3d8e1692	0.06937899
71	0x3e0736e3	0.13204531
72	0xbb9cd5a7	-0.0047862115
73	0x3ca71bb4	0.020398952
74	0x3c66420e	0.014053835
75	0x3d65f8fc	0.056145653
76	0x3db56299	0.08856697
77	0x3d563b2f	0.052302536
78	0xbd2402eb	-0.040041845
79	0xbce84002	-0.028350834
80	0x3c44d5e2	0.012013884
81	0x3dbe930d	0.093053915
82	0x3d1fcd56	0.039014183
83	0x3d3a3c40	0.045467615
84	0x3de60b12	0.1123258
85	0xbafdb835	-0.0019357266
86	0x3d0a9e23	0.033842217
87	0xbd1f602a	-0.03891007
88	0x3d5e726a	0.054308333
89	0x3dd66289	0.10468013
90	0xbd7018ba	-0.05861733
91	0x3c2d51c0	0.010578573
92	0x3db58a77	0.08864301
93	0x3c83ea0a	0.01610281
94	0xbd118cbe	-0.035534613
95	0x3cd38747	0.025821341
96	0x3dec9a0b	0.11552819
97	0x3d9f5153	0.07779183
98	0x3db0f699	0.08640785
99	0x3d9fcbd7	0.07802551
100	0x3dabbe9e	0.08385967
101	0x3d53a11b	0.051667314
102	0x3d45c075	0.048279244
103	0xbd0486a0	-0.03235495
104	0x3d12a982	0.035806186
105	0x3da44f71	0.08022965
106	0x3da98b20	0.08278489
107	0x3babcef9	0.005243179
108	0x3cf5ade5	0.029990146
109	0xbc22d4a6	-0.009938395
110	0x3cf5c40c	0.030000709
111	0x3cd0799e	0.025448617
112	0xbcd6438b	-0.026155254
113	0x3d287153	0.0411237
114	0xbd0e0209	-0.03466991
115	0x3ba426cb	0.0050095073
116	0xbc61c793	-0.013780492
117	0xbd38a525	-0.04507937
118	0x3d65172e	0.05593031
119	0xbd61158e	-0.054952197
120	0x3d2b32c7	0.041796472
121	0x3d5295ab	0.051412266
122	0xbba7bff6	-0.005119319
123	0xbac2500f	-0.0014824885
124	0xbc9c40a7	-0.019073797
125	0x3c3a0b9e	0.011355309
126	0x3c4d6286	0.012535697
127	0x3cf2a9a4	0.029621907

sequential/dense_1/BiasAdd/ReadVariableOp f4 [10]
0	0xbcab2f95	-0.020896712
1	0xbd055175	-0.032548387
2	0x3da0fa51	0.07860244
3	0xbdad7a18	-0.08470553
4	0x3c3ec0e6	0.01164267
5	0x3c6f39cd	0.014601183
6	0xbb56034e	-0.0032655778
7	0x3d12e17d	0.035859574
8	0x3c476662	0.012170406
9	0xbd0d2cbc	-0.03446649

sequential/dense/MatMul f4 [128, 784]
0	0x3d00915e	0.031388633
1	0xbc2a2c28	-0.010386504
2	0xbc3724a8	-0.011178173
3	0xbd3d1ed2	-0.04617197
4	0xbd8443bf	-0.06458234
5	0xbc9266dc	-0.017871313
6	0x3d7812f6	0.060564958
7	0xbc437e30	-0.011931941
8	0xbbd9e020	-0.0066490322
9	0x3cd27560	0.025690734
10	0x3d6f153a	0.058369853
11	0x3d6e681a	0.058204748
12	0xbc599f24	-0.013282571
13	0x3d258c92	0.04041726
14	0xbd28b01a	-0.04118357
15	0x3d4793c9	0.048724923
16	0xbcacd0fc	-0.021095745
17	0x3d0d52b4	0.0345027
18	0xbd3c1c90	-0.045925677
19	0x3d89b38b	0.06723698
20	0x3d65325a	0.055956222
21	0xbcb214d8	-0.021738455
22	0x3d97fcf9	0.074212976
23	0x3d8bf63f	0.06834077
24	0x3d9255ff	0.07145309
25	0xbd5f5c98	-0.054531664
26	0x3d704556	0.058659874
27	0x3d8c4239	0.068485685
28	0xbd6eb133	-0.05827446
29	0x3cd5d4b0	0.026102394
30	0x3d47c2d2	0.04876978
31	0x3cd6f458	0.026239559
32	0x3d0651b5	0.032792766
33	0x3da52c74	0.080651194
34	0x3e0a67af	0.13516115
35	0x3c848601	0.01617718
36	0x3d0351c1	0.03206039
37	0x3cca2deb	0.024680099
38	0x3d21e9f6	0.039529763
39	0xbcfb67da	-0.030689169
40	0xbd5d5aec	-0.054041788
41	0x3bc0e815	0.0058870413
42	0x3d1ac24d	0.037782956
43	0xbd3c4ccc	-0.045971677
44	0x3cfdccd6	0.030981462
45	0x3ce80233	0.028321361
46	0x3e22fde4	0.15917164
47	0x3d77ff34	0.060546115
48	0x3e313b62	0.17307809
49	0x3dfb521d	0.12271521
50	0x3def5cf5	0.11687652
51	0x3caed7e9	0.021343188
52	0xbd9f3346	-0.077734515
53	0xbc17bc28	-0.009261169
54	0xbd82046b	-0.06348499
55	0x3d908b6b	0.07057842
56	0xbda2ba8a	-0.07945736
57	0xbd8d040e	-0.06885539
58	0x3d277f51	0.040892903
59	0xbdb3dcdf	-0.08782362
60	0xbd136fae	-0.035995178
61	0x3e03fba6	0.12888965
62	0x3d1021f6	0.035188638
63	0x3dd21184	0.10257247
64	0x3db81dcd	0.08990059
65	0x3e0a5294	0.13508064
66	0x3e79472f	0.2434356
67	0x3dd97389	0.1061774
68	0x3dc114f5	0.09427825
69	0xbbeac036	-0.0071640266
70	0x3da48d5e	0.08034776
71	0x3de23f91	0.110472806
72	0x3de9f625	0.114239015
73	0x3ded5df2	0.11590184
74	0xbc94d238	-0.018166646
75	0x3dd49833	0.10380592
76	0x3dd6efa2	0.10494925
77	0x3e05053a	0.12990275
78	0x3d33ae78	0.04386756
79	0x3da335f8	0.07969278
80	0x3d6806e8	0.05664721
81	0x3d91d844	0.071213275
82	0x3c0cde38	0.008597903
83	0x3cec1bd4	0.028821863
84	0x3ca46608	0.020068184
85	0x3d91e16b	0.07123073
86	0x3d3da14b	0.0462964
87	0xbe20f6fc	-0.15719217
88	0xbd3a93f1	-0.045551244
89	0x3e0fc4e7	0.14039956
90	0x3e2eb597	0.17061459
91	0x3ce6ba02	0.028164867
92	0x3da6cd62	0.081446424
93	0x3d2b9d33	0.041897964
94	0x3ccce961	0.025013627
95	0x3d8e8590	0.06959069
96	0xbd1a3782	-0.037650593
97	0x3c5ddca9	0.013541379
98	0x3b99fd1d	0.004699363
99	0xbde69589	-0.1125899
100	0xbbc39184	-0.0059682745
101	0xbbb1b477	-0.0054231244
102	0x3d6dc62d	0.058050323
103	0x3d755884	0.05989887
104	0xbd27c3bc	-0.04095815
105	0x3d03a5a4	0.03214039
106	0x3d6168b7	0.055031504
107	0x3cc3b7e1	0.023891391
108	0x3dd82523	0.10553958
109	0x3dcb2662	0.0991943
110	0x3d19b0f4	0.03752227
111	0x3da543c9	0.080695696
112	0x3d678f7a	0.056533314
113	0x3cbd729c	0.02312594
114	0xbc8b9142	-0.017037038
115	0xbdffcc94	-0.12490192
116	0x3defc20d	0.11706934
117	0x3e48ef96	0.19622645
118	0x3e026e4d	0.12737389
119	0x3e1c32ba	0.15253726
120	0x3df4e3cb	0.119575106
121	0x3d73a031	0.059478942
122	0xbd45b824	-0.048271313
123	0xbd04e915	-0.032448847
124	0xbcb6a64d	-0.022296095
125	0x3d8ebabc	0.069692105
126	0xbdb528fd	-0.088457085
127	0xbe0f575c	-0.13998169
128	0xbd862911	-0.065508015
129	0xbd0a86f8	-0.033820122
130	0x3c0ed113	0.008716839
131	0x3cfeb478	0.031091914
132	0xbd5c5c04	-0.05379869
133	0xbbe959fc	-0.0071213227
134	0xbddd6fd6	-0.10812347
135	0x3db06169	0.086123295
136	0x3cacddd2	0.021101866
137	0xbb74202a	-0.0037250617
138	0xbd84de37	-0.064876966
139	0x3ca5ac6e	0.020223822
140	0x3d8a41db	0.06750842
141	0xbd02b8f6	-0.031914674
142	0x3c41a24c	0.01181848
143	0xbd4eaef4	-0.050459817
144	0x3e41693c	0.188878
145	0x3e07fed7	0.13280807
146	0x3e153737	0.14571844
147	0x3d5c0b24	0.053721562
148	0x3e073b09	0.13206114
149	0x3e5902d1	0.2119248
150	0x3d8639ae	0.0655397
151	0xbba1d54d	-0.0049387575
152	0xbdbf86e0	-0.09351897
153	0x3d0cdf44	0.03439261
154	0xbddd283e	-0.10798691
155	0x3d3ab947	0.04558685
156	0xbc62a87b	-0.013834114
157	0xbdea6da0	-0.114466906
158	0xbd11dd94	-0.035611704
159	0xbd778cf5	-0.06043716
160	0xbe3174fe	-0.17329785
161	0xbd1d46b2	-0.0383975
162	0xbd3e7e49	-0.046507154
163	0x3cb552fb	0.022134295
164	0xbd05261d	-0.03250705
165	0x3cdd6ada	0.02702849
166	0xbe17ea1c	-0.148354
167	0x3cd7112a	0.026253302
168	0xbd8463eb	-0.0646437
169	0xbe005e90	-0.12536073
170	0xbd38d284	-0.04512264
171	0x3dfe0465	0.12403182
172	0x3e69b946	0.22824582
173	0x3e5ddf1e	0.21667144
174	0x3e1f884f	0.15579341
175	0x3dd43f6b	0.103636585
176	0x3dc069ad	0.09395156
177	0x3d92a79a	0.07160874
178	0x3d899e25	0.06719617
179	0x3d6b4d0a	0.057446517
180	0x3c84f97f	0.01623225
181	0xbd70d0e2	-0.058792956
182	0xbda1d73a	-0.07902379
183	0xbd4facf8	-0.050702065
184	0xbd83808b	-0.06421002
185	0xbdadf5f2	-0.08494176
186	0xbce7b493	-0.028284347
187	0xbdbb4192	-0.09143366
188	0xbe1791dd	-0.14801736
189	0xbda37626	-0.079815194
190	0xbdc2ccd2	-0.095117226
191	0xbda1b59f	-0.078959696
192	0xbe36826d	-0.17823191
193	0x3cc8f32d	0.024530018
194	0xbd640723	-0.05567087
195	0x3c589d78	0.013221137
196	0x3d971a8e	0.07378112
197	0xbd31fdb8	-0.043454856
198	0x3d7325a2	0.05936206
199	0x3e18a503	0.14906697
200	0x3d21f5f1	0.03954119
201	0x3e1cdc6d	0.15318461
202	0x3dce532d	0.10074458
203	0x3d061f4b	0.032744687
204	0x3d2557e8	0.040367037
205	0x3e07e150	0.13269544
206	0x3d4e5f08	0.050383598
207	0x3d9ed74b	0.077559076
208	0xbcc27846	-0.023738991
209	0xbd0d5f25	-0.034514565
210	0xbd64f294	-0.055895403
211	0xbd7e5241	-0.062090162
212	0xbb988ec4	-0.004655691
213	0xbd96950c	-0.07352647
214	0xbdb1e30b	-0.08685883
215	0xbd50fd69	-0.05102292
216	0xbda3cf60	-0.07998538
217	0x3c768a60	0.01504764
218	0xbdfa14cc	-0.12210998
219	0xbe31a279	-0.17347135
220	0xbd6ac424	-0.05731596
221	0x3d09589a	0.033531763
222	0x3b5b3300	0.0033447146
223	0x3d53321f	0.05156147
224	0xbe1617bb	-0.1465749
225	0x3dc863a4	0.0978463
226	0xbbcadb5d	-0.006190701
227	0x3dc33cb6	0.09533064
228	0x3d873c19	0.066032596
229	0x3da38276	0.07983868
230	0x3da18909	0.078874655
231	0xbcf412de	-0.029794153
232	0xbd393eb3	-0.04522581
233	0x3b874d31	0.004129075
234	0x3d34185f	0.043968555
235	0xbbeebc66	-0.0072856424
236	0xbcfdeb95	-0.030996123
237	0xbc4f6904	-0.012659315
238	0x3bff2dbb	0.007787434
239	0xbda924c7	-0.08258968
240	0xbdbe22ec	-0.092840046
241	0xbd8de604	-0.069286376
242	0x3c7d746a	0.01546965
243	0xbd02d3f9	-0.031940434
244	0x3a4c1c3b	0.0007786189
245	0xbc48a0fa	-0.012245411
246	0xbe1e3ce7	-0.1545292
247	0xbda14767	-0.07874947
248	0xbdda8a78	-0.10670942
249	0xbdc75624	-0.09733227
250	0xbca11f03	-0.019668108
251	0xbdbdc1f4	-0.09265509
252	0x3acbbbe1	0.0015543663
253	0x3d4b4d75	0.049634416
254	0xbc29beb9	-0.010360413
255	0xbbd3c485	-0.006462636

sequential/dense_1/MatMul f4 [10, 128]
0	0xbdf00785	-0.11720184
1	0xbdf7a273	-0.120915316
2	0x3d3f23b0	0.046664894
3	0xbeafac0b	-0.34310946
4	0xbe89713b	-0.268442
5	0x3cd31a44	0.02576936
6	0xbe5b0544	-0.21388727
7	0xbe0b8e13	-0.13628416
8	0x3c18af61	0.009319157
9	0x3dfaa8de	0.1223924
10	0x3e1aa8ca	0.1510345
11	0x3def428a	0.11682613
12	0xbf49d9a7	-0.78847736
13	0x3ec5958f	0.38590667
14	0xbea18f45	-0.31554618
15	0x3e86de46	0.26341456
16	0x3ddf30b6	0.10897963
17	0xbdc387ea	-0.09547408
18	0xbec51987	-0.38496038
19	0xbd39fce0	-0.045407176
20	0x3e7b2817	0.24527012
21	0x3d07a79f	0.03311884
22	0xbe6b4583	-0.22975735
23	0xbe64f9b0	-0.22360873
24	0xbe87a101	-0.26490024
25	0x3e167f38	0.14696968
26	0xbe9ff413	-0.312409
27	0xbf19d9d8	-0.6009803
28	0x3d87c758	0.06629819
29	0x3dce608b	0.10077008
30	0xbeb1350f	-0.34610793
31	0x3e4c3d2a	0.19945207
32	0x3e1947a1	0.1496873
33	0xbdf45fa0	-0.119323015
34	0x3e53e6c9	0.20693506
35	0x3e24908d	0.16070767
36	0x3e95964f	0.2921624
37	0xbd8e5dbd	-0.06951473
38	0xbd767734	-0.060172275
39	0x3e8d9439	0.27652147
40	0x3d2234b5	0.039601047
41	0x3e4437dd	0.19161935
42	0xbe365aff	-0.1780815
43	0x3c8bbe89	0.017058628
44	0xbe837eb0	-0.25682592
45	0xbdc5e67e	-0.096631035
46	0xbe0ac271	-0.13550736
47	0x3e580e68	0.21099246
48	0xbe830a17	-0.25593635
49	0xbdddce6d	-0.10830388
50	0x3e261b29	0.16221298
51	0xbdd7f9d6	-0.10545699
52	0xbe229c2b	-0.15879886
53	0x3d56c6d1	0.0524357
54	0x3e086f13	0.13323621
55	0xbe9ea081	-0.3098183
56	0xbe7ae590	-0.24501634
57	0xbe04f8d6	-0.12985548
58	0x3dfd8507	0.123788886
59	0xbef33640	-0.47502327
60	0xbec13b8c	-0.37740743
61	0xbe69c319	-0.2282833
62	0xbe60c0ad	-0.219485
63	0x3e59473a	0.21218577
64	0x3c7b93f3	0.015355098
65	0x3c930b38	0.017949685
66	0x3e5683be	0.20948693
67	0xbea47fc5	-0.3212873
68	0xbe467d47	-0.19383727
69	0xbdefcf7d	-0.11709497
70	0xbbc9940a	-0.006151681
71	0x3d25d0c0	0.040482283
72	0xbf1d1f51	-0.6137591
73	0x3d98ef1e	0.07467483
74	0xbec17345	-0.37783256
75	0x3e774e94	0.24151069
76	0xbe9f1e24	-0.31077683
77	0x3e3b4fe4	0.18292195
78	0x3dc12bd5	0.094321884
79	0xbeff8a04	-0.49909985
80	0xbeddbd63	-0.43308553
81	0xbe55781f	-0.20846604
82	0x3e3ba51b	0.18324701
83	0xbd39f16c	-0.045396253
84	0x3e5adcce	0.21373293
85	0x3e22b14e	0.15887949
86	0xbe6f3221	-0.23358966
87	0xbd6546e1	-0.0559758
88	0x3d65a6e4	0.056067362
89	0xbe0df190	-0.1386168
90	0x3c4c5fd0	0.012474015
91	0xbd8115f0	-0.06303012
92	0xbeb417a3	-0.35174283
93	0xbdddf062	-0.10836865
94	0x3dd26950	0.10273993
95	0xbe10ae3d	-0.14128967
96	0xbdd4305f	-0.103607886
97	0x3c2a6fad	0.010402602
98	0x3e62bfeb	0.22143523
99	0xbe588a64	-0.21146542
100	0xbe3c8f49	-0.18414034
101	0xbf037d9d	-0.51363546
102	0x3e4bc2d3	0.19898538
103	0xbef4be8a	-0.4780162
104	0x3e8ec91a	0.27887803
105	0xbe03c11c	-0.12866634
106	0xbe92c16a	-0.28663188
107	0x3e6aef43	0.22942834
108	0xbe655de1	-0.22399093
109	0xbee6db61	-0.45089248
110	0x3af76d5d	0.0018877197
111	0xbe345470	-0.17610335
112	0x3e0fee5a	0.14055768
113	0x3eadb3ba	0.33926183
114	0x3ec81e8a	0.390858
115	0xbe3c2eed	-0.18377276
116	0xbcfa7897	-0.03057508
117	0x3d930fc1	0.07180739
118	0x3e7eebde	0.24894664
119	0x3df613e8	0.120155156
120	0x3ea87265	0.32899776
121	0xbe40ce15	-0.18828614
122	0xbc8365f1	-0.01603982
123	0x3d309d64	0.04311885
124	0xbd40f692	-0.047110148
125	0xbf0b1aaf	-0.5433759
126	0x3dcd26ae	0.10017143
127	0x3e623370	0.22089934
128	0xbe73f972	-0.23825625
129	0x3ca7335f	0.020410238
130	0x3d23cfa1	0.039992932
131	0x3d835fb1	0.06414736
132	0xbeab4c96	-0.33456868
133	0xbeb86e31	-0.3602157
134	0xbe31f477	-0.17378412
135	0xbd5f53e8	-0.05452338
136	0xbc9392c7	-0.018014325
137	0x3e477ce6	0.19481239
138	0x3e92347e	0.28555673
139	0xbce32694	-0.027728356
140	0x3d9c6f2a	0.0763839
141	0xbea78736	-0.32720345
142	0xbe3954f8	-0.1809882
143	0xbe7e0923	-0.24808173
144	0xbe89a824	-0.26886094
145	0xbc754fce	-0.01497264
146	0x3e344589	0.1760465
147	0x3ca72d21	0.020407261
148	0x3dea6617	0.11445253
149	0xbe035c82	-0.12828258
150	0xbe911283	-0.28334436
151	0x3e1e778f	0.15475295
152	0x3da1eb4f	0.0790621
153	0x3e39cecd	0.18145294
154	0x3e01d0b7	0.12677275
155	0x3e80acc7	0.2513182
156	0xbecd62eb	-0.4011453
157	0xbe828cd2	-0.25498062
158	0x3dec120d	0.115268804
159	0xbe4d049d	-0.20021291
160	0xbdc7dd56	-0.09759013
161	0xbe7a7a98	-0.24460828
162	0x3efb1e08	0.4904635
163	0xbe76d45b	-0.24104445
164	0x3b1d88cc	0.0024037836
165	0xbec2c653	-0.38041934
166	0xbe6420a1	-0.22278072
167	0x3d150773	0.036384057
168	0xbdc9369a	-0.098248675
169	0xbe3bd2b1	-0.18342091
170	0x3e7b4c82	0.24540904
171	0xbe5a0f36	-0.21294865
172	0x3ec8e07a	0.39233762
173	0xbd325c16	-0.04354485
174	0x3d5dfa56	0.054193817
175	0xbd1b0c5d	-0.037853587
176	0x3e216141	0.15759756
177	0xbd9c0458	-0.07618016
178	0x3c6a9b56	0.014319262
179	0xbe968c87	-0.2940409
180	0x3da6b97f	0.08140849
181	0xbe40220e	-0.18762991
182	0xbdebf0a8	-0.11520511
183	0x3cf00e2f	0.029303638
184	0x3ece7ccb	0.40329584
185	0xbdbc0f9b	-0.09182664
186	0xbe899a61	-0.26875594
187	0x3e796b5c	0.2435736
188	0x3e1f9a55	0.15586217
189	0xbd862b21	-0.06551195
190	0x3e094e41	0.13408758
191	0xbec65034	-0.38733065
192	0xbe757538	-0.23970497
193	0xbe998eaa	-0.29991657
194	0x3bec9105	0.007219436
195	0x3e71dd06	0.2361947
196	0x3df7c140	0.120974064
197	0xbdc51f1c	-0.09625074
198	0xbdbb70ba	-0.0915236
199	0xbe89be06	-0.2690279
200	0x3e3cdacd	0.18442841
201	0x3e2c3f02	0.1682091
202	0x3e2a9ec2	0.16662124
203	0xbe4b829b	-0.19874041
204	0x3e9014c4	0.28140843
205	0xbb56c263	-0.0032769672
206	0x3d1be7bb	0.038062792
207	0x3db99f7b	0.090636216
208	0x3eeb473c	0.45952785
209	0xbe9a7afc	-0.30171955
210	0xbea0640a	-0.31326324
211	0xbe555ec0	-0.20836926
212	0x3d2bd765	0.041953463
213	0xbe583407	-0.21113597
214	0x3da90c62	0.08254315
215	0xbde3c41f	-0.111213915
216	0x3e961186	0.29310244
217	0x3ec93d92	0.39304787
218	0xbf1dc97c	-0.61635566
219	0x3db53413	0.08847823
220	0xbe64bb0c	-0.22336978
221	0x3e3fb1aa	0.18720117
222	0xbe8ff715	-0.28118196
223	0x3e4d1707	0.20028315
224	0xbdaa472f	-0.083143584
225	0x3f01cc62	0.5070249
226	0x3e15431b	0.1457638
227	0x3f122b5e	0.57097423
228	0x3d6069fd	0.05478858
229	0xbe821833	-0.25409088
230	0x3e40df73	0.18835239
231	0x3e4ac2b1	0.19800831
232	0x3e2c4399	0.16822661
233	0x3e90f2ad	0.28310147
234	0xbe626fad	-0.22112913
235	0x3dde12e8	0.1084345
236	0xbd7306c1	-0.059332613
237	0x3e0bc998	0.1365112
238	0xbe7be094	-0.24597389
239	0x3d8d119b	0.068881236
240	0x3c3d07f4	0.011537541
241	0x3e951f1b	0.29125294
242	0x3ea80e2f	0.3282332
243	0xbdc2fb7c	-0.09520623
244	0xbba5bbb8	-0.005057778
245	0xbe754f50	-0.23956037
246	0x3e5e53de	0.2171168
247	0xbe15efaa	-0.14642206
248	0x3edfab6f	0.4368548
249	0xbe342c11	-0.17594935
250	0xbe10bc9e	-0.14134452
251	0x3e421743	0.18954186
252	0xbdb85553	-0.09000649
253	0x3e702b56	0.23454031
254	0xbdacb9de	-0.08433889
255	0x3dd93296	0.106053516
